images/model.pt (torch, 17941 bytes, 27 tensors)

prep.weight f4 [8, 3, 1, 1]
0.08812169 -0.14100428 -0.066386215 -0.5276848 0.17205498 -0.5324824 -0.16414371 -0.5907514
-0.12253665 0.34023428 -0.24540155 0.13112885 -0.23594938 0.28656328 0.27326885 -0.0874191
-0.26521084 -0.014105372 -0.3571202 0.38130182 0.19807813 -0.42240867 -0.57793874 0.18128096
00000000: 2579 b43d 6d63 10be 7ff5 87bd 5a16 07bf
00000010: 2e2f 303e c450 08bf 4a15 28be 7c3b 17bf
00000020: 7ff4 fabd 3033 ae3e 8b4a 7bbe a446 063e
00000030: b79c 71be 6cb8 923e e5e9 8b3e c908 b3bd
00000040: b7c9 87be 381a 67bc 75d8 b6be fe39 c33e
00000050: fed4 4a3e f345 d8be cbf3 13bf b7a1 393e

prep.bias f4 [8]
0.47388196 -0.087961905 -0.27375868 -0.610941 0.24435683 0.03206628 -0.004266743 -0.063797675
00000000: a8a0 f23e 5f25 b4bd 192a 8cbe a166 1cbf
00000010: ad38 7a3e ee57 033d 09d0 8bbb 5ba8 82bd

main.0.alfa f4 [1, 8, 1, 1]
1.0325513 0.99552137 0.9618115 0.9890877 0.9855727 0.9999746 1.0027907 1.0309719
00000000: a42a 843f 7dda 7e3f 4739 763f da34 7d3f
00000010: 7e4e 7c3f 56fe 7f3f 725b 803f e3f6 833f

main.0.beta f4 [1, 8, 1, 1]
-0.00496508 0.0069663506 0.005367839 -0.005386924 0.018939013 0.076827765 0.057792667 0.07017489
00000000: 1cb2 a2bb fc45 e43b b2e4 af3b cb84 b0bb
00000010: fd25 9b3c e057 9d3d 01b8 6c3d dab7 8f3d

main.0.conv.weight f4 [8, 8, 3, 3]
-0.11145098 0.016775811 -0.05338976 -0.04186965 0.044015434 0.09225733 -0.078547835 -0.06876843
-0.121521026 0.01103833 0.03372157 0.025443723 -0.08121849 -0.04250618 0.0116159385 0.07575246
-0.033842653 -0.018351313 -0.012676837 0.13141361 0.17207089 0.084491074 0.0165605 0.13910548
0.050174788 0.01442275 0.09912483 0.06222055 -0.07826176 -0.07533023 0.050050996 0.08575387
-0.050610397 -0.01564883 0.042079076 -0.021854395 -0.08364899 -0.014450402 -0.08270865 0.024905445
-0.10571291 -0.026454369 0.05558395 -0.0050256103 0.024076657 -0.058018513 0.0061217123 0.16200052
-0.046704818 -0.020369863 0.083331816 -0.22799593 -0.14519127 0.063490726 0.03789337 -0.14979231
-0.12578112 -0.022461277 -0.004548641 -0.13018177 0.048532315 -0.02009168 -0.1368983 -0.07462321
0.0678313 0.20562881 0.050471902 0.17864262 0.18564124 0.088278614 -0.031939313 -0.0027695727
-0.10802794 -0.068290256 -0.04838484 0.039248083 0.03475923 0.01741797 0.056719866 0.035505667
-0.003696243 -0.04652531 -0.009000921 0.091919154 -0.046449997 0.09721786 0.088032104 -0.021606077
-0.057651065 -0.027318863 0.12751363 -0.023910055 0.098765925 0.011606486 0.10935887 0.06748283
-0.060389932 -0.094762154 0.09668769 0.043517556 0.08000386 0.10070795 -0.035515647 0.003345274
0.103009395 -0.013972137 0.0045224247 0.019070646 -0.027196951 -0.035298046 -0.040389076 -0.1046112
0.044036284 -0.004582147 -0.038846135 -0.09127613 -0.0037738504 0.010372774 -0.002325262 -0.15792404
0.18330358 0.11180088 -0.3043634 0.192399 0.18134597 -0.09697205 -0.008607365 0.13958715
-0.05079077 0.008187042 -0.007993194 0.13859145 -0.08090049 -0.0015669551 0.11407838 -0.019163959
-0.056952965 -0.06309879 -0.016513808 0.026051499 0.007364585 0.10729478 -0.057626188 -0.07380829
-0.032183297 -0.013104718 -0.049549777 0.017884402 0.028553354 -0.06901099 -0.031166686 -0.038431287
-0.08795832 -0.077334724 0.006235023 0.14275907 0.105539545 -0.035465818 -0.07294339 -0.03879516
-0.023334559 0.07305394 0.0102357995 0.09933346 0.016544763 0.11222051 -0.02598787 -0.07824195
0.11594642 -0.0059504635 0.014926779 -0.10177687 0.046154156 0.09492201 0.032175746 0.10879738
0.09699673 -0.08413647 -0.0637689 0.028631726 0.0925406 -0.002814897 -0.036229454 0.054169536
-0.05901972 -0.07505062 -0.1282435 -0.017267767 0.012548154 0.026462393 0.1295568 0.09711134
0.051866658 -0.01596922 0.073105104 -0.14718843 0.036917746 0.05762009 -0.040508576 0.009375089
0.02167364 0.05571582 -0.06636102 0.024600655 0.043120842 0.0638443 -0.11426433 -0.038297478
0.103444204 0.116889805 0.036210712 0.015258584 0.10133094 -0.011114917 0.11992808 0.08822354
0.015019406 -0.03509488 -0.049522843 0.107436985 0.09437435 -0.057959512 -0.019253286 0.074275516
0.028192822 0.04682572 -0.11805945 0.075492345 -0.10053503 -0.039751563 0.099519335 0.0954633
-0.07327996 -0.043933675 0.0719188 0.088282146 -0.08212543 -0.025499426 0.05455941 -0.11265831
-0.011431579 -0.0049272845 -0.070724554 0.09186881 0.017026491 0.02945649 -0.03219859 0.030168526
-0.029126145 -0.009200664 -0.09147783 0.05984654 0.098522924 -0.07592459 -0.049660783 0.022615232
00000000: 6940 e4bd 6d6d 893c 39af 5abd 837f 2bbd
00000010: 8749 343d 69f1 bc3d b0dd a0bd 76d6 8cbd
00000020: 04e0 f8bd 1dda 343c a11f 0a3d 5b6f d03c
00000030: e155 a6bd f61a 2ebd c750 3e3c 1b24 9b3d
00000040: 989e 0abd 7e55 96bc 82b2 4fbc 4a91 063e
00000050: 5a33 303e a809 ad3d e3a9 873c ab71 0e3e
00000060: 1484 4d3d 664d 6c3c f501 cb3d fada 7e3d
00000070: b447 a0bd bc46 9abd 4602 4d3d ba9f af3d
00000080: d94c 4fbd fa31 80bc 1c5b 2c3d fd07 b3bc
00000090: 2950 abbd 61c1 6cbc 2763 a9bd 8106 cc3c
000000a0: 0380 d8bd d5b6 d8bc ffab 633d e0ad a4bb
000000b0: 693c c53c d2a4 6dbd a598 c83b 77e3 253e
000000c0: 8d4d 3fbd b3de a6bc dfa9 aa3d c477 69be
000000d0: 05ad 14be 6d07 823d 1436 1b3d 2863 19be
000000e0: c4cc 00be b600 b8bc c40c 95bb 5f4e 05be
000000f0: d2c9 463d 4f97 a4bc 112f 0cbe 0ed4 98bd
00000100: 23eb 8a3d 5c90 523e a0bb 4e3d 17ee 363e
00000110: bd18 3e3e 6bcb b43d ccd2 02bd b881 35bb
00000120: c13d ddbd c3db 8bbd 2f2f 46bd 99c2 203d
00000130: b25f 0e3d 21b0 8e3c 1753 683d 646e 113d
00000140: ab3c 72bb 5391 3ebd 9978 13bc 1c40 bc3d
00000150: 5a42 3ebd 281a c73d 2d4a b43d 3aff b0bc
00000160: 8623 6cbd cfcb dfbc ef92 023e 05df c3bc
00000170: ca45 ca3d 2129 3e3c 8bf7 df3d 7034 8a3d
00000180: 6f5b 77bd a912 c2bd 3204 c63d 773f 323d
00000190: 10d9 a33d f83f ce3d db78 11bd 623c 5b3b
000001a0: 97f6 d23d 64eb 64bc d930 943b 0b3a 9c3c
000001b0: 24cc debc af94 10bd 046f 25bd 663e d6bd
000001c0: 645f 343d d625 96bb 201d 1fbd fbee babd
000001d0: b452 77bb 91f2 293c 6c63 18bb d7b6 21be
000001e0: efb3 3b3e dcf7 e43d 85d5 9bbe 3e04 453e
000001f0: c2b2 393e 4899 c6bd e805 0dbc efef 0e3e
00000200: fc09 50bd f122 063c e3f5 02bc ebea 0d3e
00000210: 28af a5bd 4a62 cdba eda1 e93d bcfd 9cbc
00000220: 8347 69bd f039 81bd f747 87bc f469 d53c
00000230: 9e52 f13b 5ebd db3d 7009 6cbd cd28 97bd
00000240: a2d2 03bd 2cb5 56bc b5f4 4abd 4f82 923c
00000250: b9e8 e93c a255 8dbd 4751 ffbc 206a 1dbd
00000260: 7e23 b4bd ab61 9ebd 2a4f cc3b 6f2f 123e
00000270: 1e25 d83d 9b44 11bd 5863 95bd ace7 1ebd
00000280: 1e28 bfbc 4e9d 953d 0eb4 273c 576f cb3d
00000290: e288 873c ded3 e53d 83e4 d4bc 513d a0bd
000002a0: 5175 ed3d 1bfc c2bb 738f 743c 6470 d0bd
000002b0: 240c 3d3d 7966 c23d b7ca 033d 29d1 de3d
000002c0: 39a6 c63d be4f acbd 4599 82bd 158d ea3c
000002d0: ed85 bd3d 237a 38bb 5665 14bd e0e0 5d3d
000002e0: a9be 71bd 24b4 99bd 4452 03be 2275 8dbc
000002f0: c696 4d3c a9c7 d83c 8aaa 043e 4fe2 c63d
00000300: 2272 543d e2d1 82bc 21b8 953d 90b8 16be
00000310: 1037 173d 0b03 6c3d 52ec 25bd f999 193c
00000320: eb8c b13c 4636 643d 49e8 87bd 5087 c93c
00000330: 7b9f 303d cdc0 823d 6b03 eabd d1dd 1cbd
00000340: 8eda d33d ec63 ef3d af51 143d 24ff 793c
00000350: 9986 cf3d 571b 36bc da9c f53d 8bae b43d
00000360: f413 763c a6bf 0fbd 77d8 4abd ec07 dc3d
00000370: 5747 c13d f466 6dbd 11b9 9dbc c31d 983d
00000380: a2f4 e63c 54cc 3f3d 27c9 f1bd bb9b 9a3d
00000390: 4fe5 cdbd 89d2 22bd cbd0 cb3d 4382 c33d
000003a0: ce13 96bd ccf3 33bd 2a4a 933d 45cd b43d
000003b0: 6131 a8bd 2ce4 d0bc b079 5f3d 66b9 e6bd
000003c0: 844b 3bbc 0f75 a1bb 09d8 90bd b725 bc3d
000003d0: 247b 8b3c bd4e f13c abe2 03bd fc23 f73c
000003e0: f499 eebc 62be 16bc bb58 bbbd a521 753d
000003f0: 63c6 c93d 5a7e 9bbd 1b69 4bbd 9443 b93c

main.0.conv.bias f4 [8]
-0.1515773 -0.0019764735 -0.0045139035 -0.094016366 -0.004077034 -0.028428769 0.028418446 0.0018223984
00000000: 1437 1bbe b987 01bb 5ee9 93bb a78b c0bd
00000010: a498 85bb 73e3 e8bc cdcd e83c 8bdd ee3a

main.0.norm.weight f4 [8]
0.99191487 0.9769145 1.024478 0.9501931 0.9963753 1.2441183 0.98355347 1.0710214
00000000: 22ee 7d3f 1217 7a3f 1822 833f db3f 733f
00000010: 7412 7f3f 453f 9f3f 29ca 7b3f 3b17 893f

main.0.norm.bias f4 [8]
-0.0013394747 0.025831228 0.01679342 -0.029956609 -0.035125352 0.08017173 0.006248743 0.013747028
00000000: 5091 afba 039c d33c 5b92 893c 9067 f5bc
00000010: 9adf 0fbd 1331 a43d 41c2 cc3b 373b 613c

main.1.alfa f4 [1, 8, 1, 1]
1.00081 1.0035906 0.9925941 1.0077828 1.0014819 1.0469301 0.9695869 1.013417
00000000: 8b1a 803f a875 803f a61a 7e3f 07ff 803f
00000010: 8f30 803f ce01 863f d936 783f a6b7 813f

main.1.beta f4 [1, 8, 1, 1]
-0.012068425 -0.019027729 0.0026506027 -0.0035090933 0.012148276 -0.039394416 0.012335901 -0.006435794
00000000: a5ba 45bc 0ae0 9bbc bcb5 2d3b d1f8 65bb
00000010: 9009 473c 0a5c 21bd 851c 4a3c 5ae3 d2bb

main.1.conv.weight f4 [8, 8, 3, 3]
-0.11306876 0.050593708 0.013640649 -0.007710644 -0.09269195 -0.08502723 0.10297275 0.0630023
0.018160613 -0.04975135 -0.018538939 0.02181122 -0.07887348 -0.02121118 -0.060391888 -0.10383516
0.002223242 0.03652406 0.07711568 -0.05973725 -0.0024901892 -0.057188127 -0.010345744 -0.094300285
-0.07974273 -0.051539917 -0.00831362 -0.1024616 0.014039127 0.04362314 -0.0037241867 0.081707016
0.064272925 -0.02223767 -0.045163095 0.098391406 -0.10646702 0.0800988 -0.03949624 0.012697896
0.01224876 -0.03133954 0.011709558 -0.08675156 -0.0898079 -0.04160136 0.07411251 -0.08598699
0.015175889 0.059590317 -0.010935816 -0.026410433 -0.01488318 -0.038137056 0.053063694 -0.08181279
-0.019553648 0.059651263 0.04671331 -0.010386556 -0.015917158 0.016427528 -0.043334626 -0.05884636
-0.066721596 -0.03228698 -0.072418414 -0.07246751 -0.070439875 0.0476445 0.0029904277 0.03917376
0.088647105 -0.07579307 0.10128098 0.06739634 0.060615778 -0.024088081 -0.099781424 0.082207486
0.047658432 -0.07107545 -0.07939007 -0.07508514 -0.001980926 -0.04576604 0.040873855 -0.072935894
-0.1036165 -0.08267321 0.11308081 -0.08032482 0.015565493 -0.09138954 -0.10660229 -0.06921913
0.08243482 -0.10730564 0.080008425 0.021110268 0.10117696 -0.0054752026 -0.036920942 0.13093247
-0.04930173 0.004358649 -0.052906226 0.0620848 -0.031819616 0.07433759 0.079106376 0.106374055
-0.075723976 0.084785305 0.06334395 0.031770658 0.10060249 0.03684085 -0.04029306 -0.004374894
0.0047821016 -0.039059594 -0.032542378 0.050375473 0.031654835 0.07484032 0.056175023 -0.0927608
0.09611572 0.024610952 0.11620652 0.094218396 -0.05096061 -0.0380002 -0.033073008 0.05537672
-0.03665389 -0.049192842 0.046391156 0.12855041 -0.10699378 0.0386624 0.10233599 0.012604898
0.006014379 -0.08276758 0.012589365 0.003554183 -0.051698625 -0.14371046 0.018262222 -0.106680915
-0.0062716263 0.040784717 -0.08201615 -0.084440224 -0.034334365 0.035387516 -0.045738548 -0.06562766
0.07239161 0.044093255 -0.08188696 0.09723491 -0.10889269 0.05220499 0.070309974 -0.08653159
0.10497602 -0.0024287957 -0.019021152 -0.08165481 0.0412611 -0.052364074 0.10778744 -0.028696574
0.031327043 0.035254866 -0.06370008 -0.043965247 0.08231903 -0.031152982 0.05953115 -0.06617747
0.007895896 -0.018749068 0.060783572 0.0013874919 0.03426889 0.005606007 -0.06388655 0.012663324
-0.052170645 -0.0701415 0.11488051 0.042038217 0.03005142 0.04477617 0.11347013 0.08443329
-0.024990253 -0.018662693 0.06599662 0.008417415 -0.00116944 -0.023840953 -0.041207418 0.07406616
-0.016128967 0.099850334 0.0632539 -0.036593605 -0.005758198 -0.0028028516 0.0799319 0.008272365
-0.11200278 -0.027807038 0.049114987 -0.02841863 0.06366617 0.08845111 0.02899278 0.10057509
-0.062007528 0.05976218 0.09870917 0.0051716627 -0.06534151 -0.019621106 0.12158727 0.08928783
0.12039702 0.13728161 0.037509352 0.14004804 -0.080417275 0.1140212 -0.07451179 0.055992022
-0.0033162835 0.13211036 -0.026074214 -0.0079059005 0.07375253 -0.043687366 -0.07628882 -0.04510192
-0.07545929 -0.14126231 -0.0582143 0.079351224 0.023510594 0.047884993 -0.061080813 -0.0580069
00000000: 9890 e7bd 593b 4f3d 077d 5f3c 92a9 fcbb
00000010: 47d5 bdbd c222 aebd 61e3 d23d 5a07 813d
00000020: 91c5 943c 12c8 4bbd f9de 97bc 72ad b23c
00000030: 6b88 a1bd 12c3 adbc 7c5d 77bd 87a7 d4bd
00000040: d0b3 113b 419a 153d d3ee 9d3d 0caf 74bd
00000050: 7132 23bb 193e 6abd 3281 29bc 8220 c1bd
00000060: 2850 a3bd 851b 53bd da35 08bc 63d7 d1bd
00000070: 5e04 663c 2dae 323d 7c11 74bb 0256 a73d
00000080: 86a1 833d c62b b6bc f0fc 38bd 6f81 c93d
00000090: 620b dabd d70a a43d cfc6 21bd d60a 503c
000000a0: 06af 483c e45d 00bd 72d9 3f3c cdaa b1bd
000000b0: 34ed b7bd 3066 2abd 4dc8 973d f219 b0bd
000000c0: 4ba4 783c fa14 743d 232c 33bc b15a d8bc
000000d0: 95d8 73bc 9a35 1cbd 5159 593d 778d a7bd
000000e0: f92e a0bc e254 743d 7556 3f3d 602c 2abc
000000f0: b364 82bc 0693 863c a67f 31bd e108 71bd
00000100: 55a5 88bd 5a3f 04bd 1b50 94bd d969 94bd
00000110: c842 90bd e126 433d 0dfb 433b aa74 203d
00000120: 9d8c b53d 6639 9bbd 676c cf3d 1807 8a3d
00000130: 4048 783d 5e54 c5bc 345a ccbd 665c a83d
00000140: 7d35 433d 0190 91bd 4397 a2bd 3dc6 99bd
00000150: 6cd2 01bb 2c75 3bbd 586b 273d 6a5f 95bd
00000160: e334 d4bd 9250 a9bd e996 e73d 5781 a4bd
00000170: 6906 7f3c 702a bbbd 4d52 dabd c2c2 8dbd
00000180: 96d3 a83d 0fc3 dbbd 75db a33d 71ef ac3c
00000190: de35 cf3d 5469 b3bb 6a3a 17bd 2913 063e
000001a0: 9cf0 49bd ffd2 8e3b 33b4 58bd a24c 7e3d
000001b0: 4955 02bd 4e3e 983d 8602 a23d a4da d93d
000001c0: 2c15 9bbd eba3 ad3d 79ba 813d f321 023d
000001d0: ae08 ce3d 6ee6 163d 560a 25bd 455b 8fbb
000001e0: 2db3 9c3b f4fc 1fbd 284b 05bd 8356 4e3d
000001f0: 80a8 013d e245 993d c817 663d 60f9 bdbd
00000200: 52d8 c43d e89c c93c affd ed3d 93f5 c03d
00000210: 13bc 50bd 19a6 1bbd 9077 07bd b3d2 623d
00000220: 6422 16bd 6f7e 49bd a704 3e3d b8a2 033e
00000230: 8e1f dbbd 775c 1e3d 8895 d13d c684 4e3c
00000240: 4514 c53b 0d82 a9bd a043 4e3c 4ced 683b
00000250: f0c1 53bd d628 13be a89a 953c 867b dabd
00000260: 3782 cdbb e00d 273d 15f8 a7bd ffee acbd
00000270: 31a2 0cbd 80f2 103d 5858 3bbd cb67 86bd
00000280: 0d42 943d 219b 343d 5ab4 a7bd 1923 c73d
00000290: 2103 dfbd e6d4 553d adfe 8f3d 7937 b1bd
000002a0: abfd d63d 6e2c 1fbb 3fd2 9bbc a33a a7bd
000002b0: 6601 293d b67b 56bd a9bf dc3d 1415 ebbc
000002c0: c950 003d 6867 103d 3075 82bd e714 34bd
000002d0: e196 a83d 8a34 ffbc efd6 733d 0e88 87bd
000002e0: ca5d 013c a597 99bc 32f8 783d 81dc b53a
000002f0: 895d 0c3d 98b2 b73b f4d6 82bd d579 4f3c
00000300: e3b0 55bd 59a6 8fbd 7946 eb3d 4430 2c3d
00000310: 652e f63c 3867 373d 0763 e83d 5ceb ac3d
00000320: 5cb8 ccbc 81e2 98bc 3c29 873d 33e9 093c
00000330: e547 99ba 1a4e c3bc 1cc9 28bd 00b0 973d
00000340: e520 84bc 557e cc3d 438b 813d 2de3 15bd
00000350: 44af bcbb 0cb0 37bb 56b3 a33d d088 073c
00000360: b761 e5bd 96cb e3bc cc2c 493d 30ce e8bc
00000370: 6963 823d db25 b53d 4482 ed3c 50fa cd3d
00000380: 9bfb 7dbd 30c9 743d 0928 ca3d 0d77 a93b
00000390: c5d1 85bd 71bc a0bc bf02 f93d 8adc b63d
000003a0: b692 f63d 8d93 0c3e 68a3 193d c168 0f3e
000003b0: d0b1 a4bd f283 e93d a399 98bd e457 653d
000003c0: 0156 59bb f047 073e 9799 d5bc c087 01bc
000003d0: 910b 973d 86f1 32bd 503d 9cbd cabc 38bd
000003e0: 668a 9abd 11a7 10be 1e72 6ebd e582 a23d
000003f0: 4a99 c03c 0e23 443d e02f 7abd a598 6dbd

main.1.conv.bias f4 [8]
-0.07544179 0.059177987 -0.031118508 -0.038186602 -0.07082749 -0.07205182 0.08596093 0.08598199
00000000: 3a81 9abd 9e64 723d 3eec febc 8e69 1cbd
00000010: 010e 91bd e88f 93bd 490c b03d 5317 b03d

main.1.norm.weight f4 [8]
1.0282384 1.0118235 0.9921599 1.0004345 0.9946638 0.99509907 1.0250282 0.99990696
00000000: 519d 833f 6f83 813f 31fe 7d3f 3d0e 803f
00000010: 49a2 7e3f d0be 7e3f 2034 833f e7f9 7f3f

main.1.norm.bias f4 [8]
-0.0071432753 -0.028418433 -0.008270728 0.008849916 0.015428751 -0.007366304 -0.0018946485 0.000487395
00000000: 2312 eabb c6cd e8bc f381 07bc 3dff 103c
00000010: dfc8 7c3c 0961 f1bb db55 f8ba 0d89 ff39

main.2.alfa f4 [1, 8, 1, 1]
0.9835849 1.0136329 0.97503495 0.9728017 1.0177925 1.0424438 0.9914516 0.9861851
00000000: 38cc 7b3f b9be 813f e49b 793f 8809 793f
00000010: 0647 823f cc6e 853f c6cf 7d3f a076 7c3f

main.2.beta f4 [1, 8, 1, 1]
0.014516852 0.021977238 0.020149829 -0.0007852839 0.0006344361 0.028455567 -0.029512923 -0.050364524
00000000: 17d8 6d3c 9c09 b43c 4111 a53c 83db 4dba
00000010: 4950 263a a61b e93c 16c5 f1bc 084b 4ebd

main.2.conv.weight f4 [8, 8, 3, 3]
-0.02981086 -0.010667763 0.060147237 0.051551007 0.0313012 -0.08151481 0.009242463 0.030650413
0.08842547 -0.0068912627 0.06015412 -0.0115268985 0.114544466 0.082834765 0.06230489 -0.013331097
-0.10573112 -0.073644206 -0.09321055 0.041161362 -0.04583681 0.058961213 -0.07143385 -0.00184896
0.08382522 0.010717888 0.03288383 -0.10294275 0.05379671 -0.04247317 -0.033709772 0.08832815
0.07322339 -0.046758182 0.08070603 0.08313272 0.05734756 0.04942678 0.054025795 0.06588192
-0.14200528 0.086992085 -0.066851325 0.0385659 -0.104813814 -0.11515097 -0.031114519 0.028552575
-0.06826154 -0.0692237 0.11298111 0.12357949 0.007176817 0.025373146 0.08054529 -0.043909457
-0.04481744 -0.064235605 0.038829993 0.07475496 -0.122349896 -0.043473702 -0.034331687 0.022132767
-0.14564808 -0.12181892 0.027286226 -0.14136839 0.06159779 0.013232233 0.010118362 -0.07328492
-0.039410442 0.017446445 0.10410446 -0.090984434 -0.05630216 -0.016156562 -0.11100293 -0.06829144
-0.105862975 -0.00842216 0.080513455 0.070611045 0.0119018415 0.07556862 -0.037685543 -0.0019480009
-0.106187105 -0.059899267 -0.009290483 -0.07780086 0.080298275 0.0016986526 0.04140067 0.029122477
0.13344006 0.11808525 -0.056615867 -0.10395248 -0.10626186 -0.13402951 -0.12437053 0.061639044
-0.011347276 -0.015586321 -0.06420557 -0.11966275 -0.00016847457 0.034210928 0.029720478 -0.11501957
0.095781565 -0.06956095 -0.07257967 -0.0011705926 -0.08064524 -0.026765006 -0.063210115 -0.0707947
0.06439664 0.097526915 0.0635065 0.042124525 -0.047118317 0.027800415 -0.112621926 -0.0063285716
-0.053248562 -0.106624015 0.09008005 0.009606659 -0.07582067 -0.08016942 0.10688574 0.0682187
-0.053340893 -0.055701602 0.09606972 -0.05483955 0.05599465 -0.022350667 0.027178869 -0.063501805
0.036972467 0.025231391 -0.086503506 -0.009939941 0.021577135 0.10346019 0.070050165 0.013679912
0.03556792 0.059264157 -0.028554697 -0.09013155 -0.035662446 -0.013288763 0.07023781 0.052885752
-0.008080516 -0.04194089 -0.060932513 -0.07580598 0.11420532 0.099305294 0.058521744 0.10543511
-0.0884728 -0.035115473 -0.05774288 -0.0064107873 0.059458215 -0.119977966 -0.043024123 0.012244567
0.06272276 -0.0031192556 -0.028839368 -0.04224652 -0.09940602 0.029183652 -0.08320359 0.0711626
0.08607908 -0.0099392 -0.08464507 -0.06124932 -0.051177755 -0.008907531 0.076513365 0.11731742
0.07116975 -0.028834932 0.0027663559 0.08066024 0.049666066 -0.011966143 -0.069685265 -0.03085532
-0.09202877 0.07041814 0.10955299 -0.06478531 -0.07247689 0.09075119 0.014151387 0.07866705
-0.007975266 -0.027097857 0.036349986 -0.023347374 -0.0069951983 0.08067044 0.009452586 -0.111918345
-0.086550005 -0.069400735 -0.070372246 -0.06341059 0.032935977 -0.06122407 -0.071509086 0.06468426
-0.06986112 0.03847721 -0.0741581 -0.09391196 -0.12317005 0.030507036 -0.07809659 -0.12706566
-0.07663444 -0.059805438 -0.006258603 -0.07493394 -0.10245634 0.03919651 0.051037394 0.082293265
0.07664652 0.064998165 0.085345864 -0.08371887 -0.09437387 0.09303911 0.0058582462 -0.09719103
-0.017717807 0.029029313 0.12337529 0.00025783206 0.08899607 0.059796292 -0.05825611 -0.029593583
00000000: e835 f4bc d7c7 2ebc f35c 763d 2627 533d
00000010: b035 003d 3df1 a6bd b36d 173c 9316 fb3c
00000020: 6a18 b53d 1ad0 e1bb 2b64 763d 51db 3cbc
00000030: 4a96 ea3d 46a5 a93d 6a33 7f3d ac6a 5abc
00000040: 8f89 d8bd c6d2 96bd 2ce5 bebd d198 283d
00000050: 61bf 3bbd 5081 713d e94b 92bd cd58 f2ba
00000060: 8fac ab3d 159a 2f3c 32b1 063d a6d3 d2bd
00000070: f059 5c3d 59f8 2dbd 4213 0abd 64e5 b43d
00000080: 25f6 953d 8285 3fbd 3449 a53d 7d41 aa3d
00000090: 46e5 6a3d bc73 4a3d 274a 5d3d 1aed 863d
000000a0: d569 11be e828 b23d 59e9 88bd 47f7 1d3d
000000b0: a0a8 d6bd 46d4 ebbd e0e3 febc 17e7 e93c
000000c0: b5cc 8bbd 28c5 8dbd a462 e73d 3e17 fd3d
000000d0: 812b eb3b 58db cf3c eef4 a43d 67da 33bd
000000e0: 7e92 37bd f58d 83bd 330c 1f3d 2119 993d
000000f0: 9592 fabd 7b11 32bd 629f 0cbd c74f b53c
00000100: c524 15be 337c f9bd 5d87 df3c e0c2 10be
00000110: f74d 7c3d 02cc 583c 7cc7 253c 6716 96bd
00000120: d86c 21bd d9eb 8e3c b834 d53d 0c56 babd
00000130: 189d 66bd c45a 84bc 8155 e3bd 62dc 8bbd
00000140: b0ce d8bd 19fd 09bc 3de4 a43d 869c 903d
00000150: f1ff 423c b8c3 9a3d 285c 1abd 1054 ffba
00000160: a078 d9bd ef58 75bd 1c37 18bc 0f56 9fbd
00000170: 6c73 a43d 53a5 de3a c093 293d 4392 ee3c
00000180: 83a4 083e aed6 f13d 0ae6 67bd 0ae5 d4bd
00000190: d19f d9bd 083f 09be fab5 febd 3979 7c3d
000001a0: ede9 39bc c55d 7fbc 367e 83bd be11 f5bd
000001b0: 8ca8 30b9 c220 0c3d 5c78 f33c 618f ebbd
000001c0: 2029 c43d f975 8ebd a6a4 94bd 926e 99ba
000001d0: 5529 a5bd 4942 dbbc 4e74 81bd d0fc 90bd
000001e0: 63e2 833d 31bc c73d b20f 823d c48a 2c3d
000001f0: 23ff 40bd b2bd e33c 53a6 e6bd e85f cfbb
00000200: 2a1b 5abd b15d dabd e47b b83d 4065 1d3c
00000210: de47 9bbd dd2f a4bd e9e6 da3d 3fb6 8b3d
00000220: fb7b 5abd 5d27 64bd 34c0 c43d 709f 60bd
00000230: a55a 653d bf18 b7bc 38a6 de3c 3c0d 82bd
00000240: 7170 173d 10b2 ce3c c028 b1bd 22db 22bc
00000250: 88c2 b03c f0e2 d33d 7676 8f3d b621 603c
00000260: abaf 113d f9be 723d 8aeb e9bc e496 b8bd
00000270: c912 12bd 1db9 59bc d7d8 8f3d bb9e 583d
00000280: 2464 04bc 36ca 2bbd 5f94 79bd 2a40 9bbd
00000290: 7be4 e93d 9360 cb3d 7fb4 6f3d 5dee d73d
000002a0: 3a31 b5bd 3ed5 0fbd cc83 6cbd 9511 d2bb
000002b0: 758a 733d 02b7 f5bd 103a 30bd 709d 483c
000002c0: ca74 803d 6d6c 4cbb 8a40 ecbc b00a 2dbd
000002d0: 6295 cbbd 8e12 ef3c a566 aabd b2bd 913d
000002e0: 3b4a b03d 07d8 22bc 655a adbd 91e0 7abd
000002f0: c49f 51bd e5f0 11bc 0ab3 9c3d 1e44 f03d
00000300: 72c1 913d 3c37 ecbc c04b 353b 3231 a53d
00000310: a56e 4b3d a40d 44bc 26b7 8ebd 4cc4 fcbc
00000320: 9479 bcbd 6337 903d 515d e03d 29ae 84bd
00000330: c46e 94bd c3db b93d 38db 673c 311c a13d
00000340: b1aa 02bc 53fc ddbc b9e3 143d fe42 bfbc
00000350: fa37 e5bb 8b36 a53d 05df 1a3c 7235 e5bd
00000360: 2141 b1bd f921 8ebd 531f 90bd 69dd 81bd
00000370: e0e7 063d 17c6 7abd 5b73 92bd 2e79 843d
00000380: 5913 8fbd 479a 1d3d 34e0 97bd ea54 c0bd
00000390: 9440 fcbd e4e9 f93c 1bf1 9fbd 801d 02be
000003a0: 84f2 9cbd 8cf6 74bd f814 cdbb f776 99bd
000003b0: a1d4 d1bd 858c 203d 960c 513d 5f89 a83d
000003c0: daf8 9c3d c21d 853d d0c9 ae3d cd74 abbd
000003d0: 1647 c1bd 4a8b be3d 88f6 bf3b 170c c7bd
000003e0: ef24 91bc e2ce ed3c 2fac fc3d a22d 8739
000003f0: 9243 b63d f5ec 743d f59d 6ebd 3e6e f2bc

main.2.conv.bias f4 [8]
0.12434242 0.10469063 -0.0646625 -0.058061484 -0.068582125 0.014146994 0.03714873 -0.04515577
00000000: 3da7 fe3d 0b68 d63d c66d 84bd e1d1 6dbd
00000010: c974 8cbd cbc8 673c 4429 183d 42f5 38bd

main.2.norm.weight f4 [8]
1.0199615 0.9783523 0.9699166 1.0189648 1.0015762 1.0579249 0.9740523 1.056111
00000000: 198e 823f 4c75 7a3f 744c 783f 706d 823f
00000010: a633 803f 156a 873f 7e5b 793f a52e 873f

main.2.norm.bias f4 [8]
-0.0064248587 0.0022791026 -0.010593155 -0.02056235 -0.016848132 -0.034523416 -0.0015850016 -0.059619717
00000000: 9f87 d2bb ff5c 153b ea8e 2dbc 6072 a8bc
00000010: 1805 8abc 6d68 0dbd d4bf cfba ce33 74bd

main.3.alfa f4 [1, 8, 1, 1]
0.9898452 1.0454981 1.0126977 1.0119482 0.936903 0.9763071 0.9616742 1.0164969
00000000: 7f66 7d3f e2d2 853f 14a0 813f 8587 813f
00000010: e0d8 6f3f 43ef 793f 4830 763f 921c 823f

main.3.beta f4 [1, 8, 1, 1]
0.018738793 -0.03080451 0.006752202 0.015915876 -0.033471536 0.042559102 0.028763033 0.0286148
00000000: 1982 993c bd59 fcbc 9341 dd3b 0362 823c
00000010: 7319 09bd 7452 2e3d 74a0 eb3c 9669 ea3c

main.3.conv.weight f4 [8, 8, 3, 3]
0.017049788 0.053567257 0.046834107 0.09521969 -0.0028599163 -0.11563311 0.047699887 -0.03718449
-0.14738022 0.1271129 0.04535513 -0.08085934 0.010338692 -0.06672871 -0.02217006 0.055595398
0.032860603 0.12483219 -0.0076082703 -0.046182077 0.068162374 0.05545183 -0.1312073 0.07625734
0.08263076 -0.024395404 0.067109615 -0.1033273 -0.051536255 -0.020086618 0.01128597 -0.06424931
-0.13977088 -0.079342924 0.036304027 0.021291822 -0.06798064 -0.10517441 0.066840775 -0.09365592
-0.051105406 -0.13577451 -0.115556784 -0.0588988 -0.050961927 -0.075105496 -0.0025738284 0.01678247
0.03916905 0.06273889 0.08650222 -0.032437656 -0.08512319 -0.037088554 -0.025677761 0.04279759
0.06516798 0.040076222 -0.074989215 -0.028069261 0.024431428 0.033168036 -0.05617488 -0.0665641
-0.07363711 0.031726573 0.013213026 0.047221113 -0.06840667 0.06334875 -0.05722043 0.0595592
0.008088868 -0.112550534 -0.05008805 0.040561743 -0.020183561 -0.0061301948 -0.054782312 0.0066760085
0.03668815 -0.074462846 -0.11011588 -0.13383758 -0.08323377 0.052126687 0.07912072 0.01138349
0.057859175 0.030902363 0.043058813 -0.020460043 0.08182728 0.093494385 -0.09941509 0.06852533
0.08662951 -0.059740048 0.008080951 0.061139885 -0.0010589223 0.056578465 0.0050867004 -0.08352448
-0.07091511 -0.013848014 0.04111278 0.022768132 -0.097846456 -0.087966286 0.08389319 -0.10190884
0.009668741 0.00096029695 0.03945086 -0.08342427 -0.021780612 -0.02003368 -0.035684936 0.06911575
0.0518539 0.099361435 0.09868935 0.11922735 0.0357021 0.0793862 0.10782376 -0.07141038
0.061756264 -0.10136808 -0.074498154 -0.0043913755 0.041559007 -0.07660507 -0.03507306 -0.10439962
-0.084933065 0.009521596 -0.0758959 -0.03957817 -0.11301338 0.12823752 -0.0796361 -0.105018914
-0.06632997 -0.09102413 0.021916008 0.09088893 0.014813341 0.03056019 0.040707085 0.0035753415
-0.11127654 -0.06593052 0.05690879 -0.06618214 -0.017331619 0.10419883 0.11983056 0.08477296
0.026013216 0.10394974 0.036758587 -0.033995327 0.012462072 -0.01399786 0.012136306 0.04580059
-0.076759435 0.08512341 -0.075360216 0.089440785 -0.08652414 -0.06837045 -0.037652284 0.030847486
0.02534783 0.004752868 -0.08715177 0.06802171 -0.097925566 -0.051947445 -0.106496476 0.097079284
-0.07875515 0.06261493 -0.11757668 0.018740902 -0.07525994 -0.120058455 -0.014725239 0.03689265
-0.112634495 -0.13408934 -0.035669055 -0.08464661 0.045051746 -0.045993187 0.107548244 -0.01830635
-0.041325692 0.059134137 0.07231482 -0.018174928 -0.091115035 -0.082434155 0.11588623 0.04830201
-0.069547124 -0.03261913 -0.015122053 -0.116580434 -0.012773121 -0.10561186 -0.09728367 -0.033343855
0.042287637 0.06877883 0.016412279 -0.1161356 -0.10042069 -0.10251351 -0.10140157 0.009677108
-0.118659966 0.09604584 -0.073107995 -0.047170192 -0.00016293408 -0.012457229 0.0800025 -0.061777487
-0.068957396 -0.04649581 -0.08166626 0.040270884 -0.099764034 0.0034456726 0.1062527 -0.04690424
0.0043934276 -0.099935345 0.01653654 0.11157923 0.02972208 -0.032502986 0.002828302 0.062302362
0.11083508 -0.03628867 0.12438588 -0.010028238 0.035061464 -0.049734507 0.12437805 -0.015737591
00000000: ffab 8b3c 5769 5b3d 1fd5 3f3d 8a02 c33d
00000010: 6f6d 3bbb 0dd1 ecbd f560 433d c44e 18bd
00000020: d7ea 16be e229 023e 4dc6 393d 9599 a5bd
00000030: 9e63 293c 10a9 88bd fc9d b5bc 00b8 633d
00000040: d798 063d 05a8 ff3d cc4e f9bb 6b29 3dbd
00000050: b798 8b3d 7521 633d 355b 06be cf2c 9c3d
00000060: 513a a93d dfd8 c7bc c470 893d 439d d3bd
00000070: ae17 53bd b18c a4bc cae8 383c 2495 83bd
00000080: 1920 0fbe 8b7e a2bd 88b3 143d 306c ae3c
00000090: 6f39 8bbd ae65 d7bd d1e3 883d adce bfbd
000000a0: e753 51bd 7908 0bbe 09a9 ecbd de3f 71bd
000000b0: 74bd 50bd e9d0 99bd adad 28bb 647b 893c
000000c0: ba6f 203d 3f7d 803d 1328 b13d 59dd 04bd
000000d0: 1155 aebd 2bea 17bd 2b5a d2bc 874c 2f3d
000000e0: ca76 853d f726 243d f293 99bd 82f1 e5bc
000000f0: 6b24 c83c 35db 073d a217 66bd c252 88bd
00000100: 0ecf 96bd b9f3 013d 737b 583c ed6a 413d
00000110: cc18 8cbd fdbc 813d f85f 6abd 59f4 733d
00000120: 2c87 043c e580 e6bd 2129 4dbd 1224 263d
00000130: ff57 a5bc cddf c8bb 6b63 60bd 6bc2 da3b
00000140: 5046 163d fa7f 98bd 6f84 e1bd b80c 09be
00000150: 7876 aabd cb82 553d 0b0a a23d d181 3a3c
00000160: befd 6c3d f426 fd3c 705e 303d d29b a7bc
00000170: 1095 a73d fc79 bf3d 249a cbbd 0257 8c3d
00000180: d06a b13d fbb1 74bd f765 043c d16d 7a3d
00000190: 89cb 8aba d2be 673d 56ae a63b e20e abbd
000001a0: f13b 91bd c8e2 62bc e065 283d 3c84 ba3c
000001b0: b963 c8bd ab27 b4bd 31d0 ab3d 95b5 d0bd
000001c0: a469 1e3c 70bc 7b3a 3a97 213d 58da aabd
000001d0: 416d b2bc ac1d a4bc 5e2a 12bd 8f8c 8d3d
000001e0: c164 543d 027e cb3d a41d ca3d 782d f43d
000001f0: 5d3c 123d 3b95 a23d b4d2 dc3d 9b3f 92bd
00000200: 23f4 7c3d 119a cfbd 7d92 98bd 87e5 8fbb
00000210: c739 2a3d 1ee3 9cbd c5a8 0fbd 78cf d5bd
00000220: 63f1 adbd 7800 1c3c 4f6f 9bbd b81c 22bd
00000230: 8f73 e7bd b250 033e 4018 a3bd 2814 d7bd
00000240: 02d8 87bd dc6a babd 3389 b33c fa23 ba3d
00000250: a8b3 723c 5d59 fa3c 79bc 263d 4750 6a3b
00000260: f4e4 e3bd 9506 87bd 3119 693d 808a 87bd
00000270: 0afb 8dbc 3266 d53d ba69 f53d 729d ad3d
00000280: ab19 d53c 9ae3 d43d 2c90 163d af3e 0bbd
00000290: b82d 4c3c 4857 65bc 5bd7 463c 6699 3b3d
000002a0: 0d34 9dbd 2f55 ae3d 7556 9abd bb2c b73d
000002b0: 9133 b1bd ce05 8cbd 4839 1abd deb3 fc3c
000002c0: 41a6 cf3c f2bd 9b3b a17c b2bd f74e 8b3d
000002d0: 338d c8bd d8c6 54bd d31a dabd 81d1 c63d
000002e0: 614a a1bd 423c 803d 0bcc f0bd 8586 993c
000002f0: e221 9abd 35e1 f5bd 2142 71bc bf1c 173d
00000300: eaac e6bd b74e 09be b719 12bd 345b adbd
00000310: 2e88 383d 5a63 3cbd 4142 dc3d 33f7 95bc
00000320: 2145 29bd a336 723d cb19 943d 96e3 94bc
00000330: 859a babd 3dd3 a8bd c255 ed3d 54d8 453d
00000340: b96e 8ebd a39b 05bd 7dc2 77bc b9c1 eebd
00000350: 5a46 51bc 084b d8bd a93c c7bd 9193 08bd
00000360: cd35 2d3d eadb 8c3d 0b73 863c 80d8 edbd
00000370: 5da9 cdbd 9af2 d1bd a0ab cfbd bc8c 1e3c
00000380: ff03 f3bd aeb3 c43d a5b9 95bd 8835 41bd
00000390: 49d9 2ab9 6819 4cbc 5ad8 a33d 640a 7dbd
000003a0: 8939 8dbd 6472 3ebd a440 a7bd 15f3 243d
000003b0: 1651 ccbd cbd0 613b 049b d93d a91e 40bd
000003c0: bef6 8f3b e7aa ccbd a377 873c a783 e43d
000003d0: b87b f33c da21 05bd 095b 393b c330 7f3d
000003e0: 81fd e23d 6ea3 14bd 06be fe3d 7b4d 24bc
000003f0: 9c9c 0f3d 69b6 4bbd ebb9 fe3d 1fec 80bc

main.3.conv.bias f4 [8]
-0.086462386 -0.08288416 -0.038962487 0.051022854 0.12564018 0.021369092 -0.03508103 0.05617305
00000000: 3113 b1bd 2cbf a9bd 2197 1fbd 57fd 503d
00000010: d2a7 003e 3c0e af3c 20b1 0fbd b615 663d

main.3.norm.weight f4 [8]
0.9737349 1.024258 0.95072955 0.9991187 1.0095038 1.009989 1.0430655 1.0409156
00000000: b146 793f e31a 833f 0363 733f 3ec6 7f3f
00000010: 6c37 813f 5247 813f 2c83 853f b93c 853f

main.3.norm.bias f4 [8]
0.0033801633 0.017251253 0.025570326 -0.032017067 -0.026007049 -0.02862405 -0.046793733 -0.0035583088
00000000: bb85 5d3b 8052 8d3c dc78 d13c 5424 03bd
00000010: bc0c d5bc fc7c eabc c9aa 3fbd 8432 69bb

post.weight f4 [1, 8, 1, 1]
0.19521433 -0.08771928 0.22153889 -0.05685133 0.22929303 -0.23148698 0.3040408 -0.3295307
00000000: 44e6 473e 2aa6 b3bd 17db 623e f1dc 68bd
00000010: cbcb 6a3e ec0a 6dbe 3cab 9b3e 3fb8 a8be
