models/sobel_3.pt (torch, 18513 bytes, 27 tensors)

prep.weight f4 [8, 3, 1, 1]
000000 10 a9 07 be c5 6a bd 3c 76 3a dd be e8 f8 90 be
       -0.13248086 0.0231222 -0.43208665 -0.283149
000010 c8 92 2d 3b b5 87 01 3e e8 ce 0d bf a9 2c 63 3c
       0.0026485194 0.12649424 -0.5539384 0.013865628
000020 0e ee b9 be 5e eb f6 be 26 78 21 bf d4 27 fb 3c
       -0.36314434 -0.48226446 -0.63073957 0.03065864
000030 12 64 27 bd c8 1c d1 3e 39 68 c1 3e f6 29 8b bd
       -0.04086692 0.4084227 0.37774828 -0.06795113
000040 6a 2a 11 bf 74 30 b2 3e 05 dd ff 3d 59 1a 03 bf
       -0.56705344 0.34802592 0.12493328 -0.5121208
000050 56 02 8d 3e 93 7d 04 be 6b 52 20 3f e6 4f ae 3e
       0.27540845 -0.12938528 0.6262576 0.34045333

prep.bias f4 [8]
000000 e5 43 e5 be c0 98 78 3e eb bf 0d be fc a2 92 bd
       -0.44778362 0.2427702 -0.13842742 -0.07159993
000010 64 3a 7a 3e 1f 29 9f 3e 92 c0 04 3f 78 0b cb bb
       0.24436337 0.3108606 0.5185634 -0.0061964355

main.0.alfa f4 [1, 8, 1, 1]
000000 19 d8 80 3f 9d ec 7f 3f 98 fa 80 3f 92 b1 89 3f
       1.0065948 0.9997042 1.0076475 1.0757315
000010 21 9a 7c 3f 91 cd 84 3f ed eb 6c 3f 71 31 7c 3f
       0.9867268 1.0375234 0.92547494 0.9851294

main.0.beta f4 [1, 8, 1, 1]
000000 af e2 01 bc 67 3c 20 3d 59 1c 3e bd 20 bf 02 ba
       -0.007927581 0.039120104 -0.046413753 -0.0004987586
000010 de ad 18 ba 4d 5d 65 bc 47 7c c1 ba 96 43 26 bd
       -0.0005824248 -0.013999295 -0.0014761769 -0.0405918

main.0.conv.0.weight f4 [8, 8, 3, 3]
000000 06 53 dd bd e5 a6 47 3d b5 f0 ce 3d 5e 2c 0f bd
       -0.10806851 0.048743147 0.10104505 -0.03495442
000010 b7 0a 82 bd 9a 48 37 bd ca 70 4e bb 15 5b b3 bc
       -0.063497 -0.044746973 -0.0031500333 -0.021894017
000020 70 e4 f1 3d a5 f9 42 3d 6f 4f 87 bd 17 69 01 be
       0.11811149 0.04760136 -0.06606948 -0.12637745
000030 16 fa 10 be 9b e5 2a bc 83 c0 a7 bd 3c 33 1a be
       -0.141579 -0.010430719 -0.081910156 -0.15058607
000040 3a f3 c1 3c e4 ff e3 bd d8 ef 65 bd ab d3 cd bd
       0.02367555 -0.11132792 -0.056136936 -0.10050138
000050 6a 05 76 3d 0c fb ee bc 35 58 78 3d 0d db 0d 3e
       0.060063757 -0.029172443 0.060630996 0.13853092
000060 cf 25 be 3c b5 34 97 3d 63 49 ad 3d 8a 4f 46 3c
       0.023211388 0.073831 0.08461263 0.0121039245
000070 96 6e bc 3d 90 75 01 3d fb 9d 41 bc 67 9a 02 3e
       0.0920078 0.031606257 -0.011817451 0.12754212
000080 e5 84 ce 3c cc 84 65 3d 5d 35 ea 3d 6e a7 a4 bb
       0.025209853 0.056034848 0.114359595 -0.005024842
000090 1b 99 e2 3d ee e2 e4 bc e6 45 00 be 2c 42 e3 3c
       0.11064359 -0.02794024 -0.12526664 0.027741514
0000a0 6c 5c 03 be 78 27 82 bd 74 5e 07 3b f8 02 11 3d
       -0.12828225 -0.06355184 0.0020655664 0.03540322
0000b0 4e 74 ad 3d df 7e 40 3d ee 66 d2 bd 96 31 93 bc
       0.08469449 0.046995994 -0.102735385 -0.01796798
0000c0 c9 f6 15 bd 0b bc e1 bc 4a ce 63 bd 37 ad 54 3d
       -0.036612306 -0.027555486 -0.055616654 0.051923003
0000d0 dc ea e0 bd 95 e6 7c bd c7 6f 86 bd e2 9c 5d bd
       -0.10982296 -0.061743338 -0.065642886 -0.054104693
0000e0 25 c3 f7 3b 15 08 d6 bd 93 ec e9 bd f2 0b 03 bb
       0.007561105 -0.1045076 -0.11422076 -0.0019996134
0000f0 6c 05 94 bd 5b aa c1 3d e8 5f 48 bd c6 15 be 3d
       -0.07227597 0.09456321 -0.04891959 0.09281497
000100 4c fe 84 3d b3 8a 33 bc 77 24 cd 3d 1d ef bf bd
       0.06493816 -0.010958361 0.10016721 -0.09371779
000110 df c3 09 bd e5 90 52 3c c1 d2 b1 3d 6b 81 aa 3d
       -0.033634063 0.012851928 0.08682776 0.08325466
000120 83 19 86 3d 9b e2 c5 bd 6a af 86 bc fa 57 28 3d
       0.06547835 -0.09662362 -0.016441066 0.041099526
000130 6f c5 61 bc 54 bc 04 3c a5 cd 28 bd f6 86 0e bd
       -0.013779982 0.008101542 -0.041211743 -0.034796678
000140 26 34 e6 bd 82 43 20 3c 19 26 7e 3d c0 a4 94 bd
       -0.11240415 0.00978172 0.06204805 -0.07257986
000150 f5 7a 81 3c a5 db d7 3d 24 c0 d2 3d a3 df 82 3c
       0.0158057 0.10539941 0.10290554 0.015975779
000160 d2 c1 c0 bd 15 dd ba bd 45 b5 eb 3d 30 f1 c5 3d
       -0.09411968 -0.09124199 0.11509184 0.096651435
000170 4d f3 38 bd bd 53 8b 3c 5b fc bd bd c2 1b aa 3d
       -0.045153905 0.017007703 -0.092766486 0.08306076
000180 ec 35 c4 3d 56 6b 01 3d 43 12 2f 3d 56 8d 13 3c
       0.09580597 0.031596504 0.042742025 0.009005865
000190 79 c3 99 3c ae 42 3e bd 61 3b 00 3e 9a 75 9e ba
       0.018769966 -0.04645031 0.12522651 -0.0012089491
0001a0 08 7f b4 bd d7 fc 86 bd 21 e3 91 bd de 4d 67 bd
       -0.08813292 -0.06591194 -0.071233995 -0.056470744
0001b0 8a cc b9 3a 9c 91 03 be ca 25 4d bd 83 90 39 3d
       0.0014175337 -0.12848514 -0.050084867 0.045303833
0001c0 4e 0f 25 3d 5e 42 8e bd c4 2b 59 3d 24 91 88 3d
       0.0402978 -0.06946252 0.053020254 0.066683084
0001d0 71 16 8d 3c 5a 06 ec 3d 59 e0 b5 bd b3 0e a7 bd
       0.017222615 0.11524649 -0.088806815 -0.081571005
0001e0 db af 9b 3d 6b 3d e7 3c 58 97 3f bc 50 30 1f bc
       0.07601901 0.028227529 -0.011693798 -0.009716108
0001f0 ab 98 cb bb d8 43 1d 3d c8 54 b6 3d a9 23 b4 bd
       -0.006213268 0.03839478 0.089028895 -0.08795864
000200 4e 86 1f bd 15 d3 c2 3d d2 f9 b1 3d 41 ee d4 bc
       -0.038946442 0.09512917 0.086902276 -0.025992515
000210 c6 cd 8e 3d 28 84 de bc 96 53 0d 3c 52 53 85 bd
       0.06972842 -0.027162626 0.0086258855 -0.06510033
000220 8b 99 6f 3d c4 9e 5c 3d f3 90 fa bd 08 16 60 3d
       0.05849604 0.05386235 -0.12234678 0.05470851
000230 aa fc a1 bc 11 65 6c bd e1 4f 4c bd fd e0 b0 3d
       -0.0197738 -0.057713572 -0.049880866 0.08636663
000240 a7 bc a4 3d 1b dd 71 bd 05 bd a6 3d 43 b5 26 bd
       0.08043795 -0.059048753 0.08141521 -0.04070021
000250 92 bf 25 3d 1f 20 36 bd 84 7b 5f 3d 00 1b 19 3d
       0.0404659 -0.044464227 0.054561153 0.037379265
000260 e6 09 e4 bd a5 e9 e3 3c ef 9b 5b bb 6d 57 cb 3c
       -0.111347005 0.027821371 -0.0033509692 0.024821961
000270 e3 59 24 bd bc 60 8c 3d f8 1c 3a 3d 17 ec eb bb
       -0.040124785 0.06854388 0.045437783 -0.007199775
000280 c3 a7 93 3d f7 46 0a be 8c f9 d9 3d f8 29 66 bc
       0.072097324 -0.13503633 0.106433004 -0.014048092
000290 bb ae da 37 10 f6 ac 3c fb a0 f6 bd 2a be 30 3d
       2.606899e-05 0.021113425 -0.12042423 0.043150105
0002a0 f7 ad 1b bd 34 ce b4 3d ac fc 52 bc b2 8b a3 3d
       -0.038007703 0.088283926 -0.0128776245 0.07985629
0002b0 72 72 3d bc 38 e5 b0 bd 33 55 0c bd a8 25 27 3d
       -0.01156293 -0.0863747 -0.03426094 0.040807396
0002c0 83 45 d8 bd ac 10 92 bc 60 33 fb bd e4 5f bc bd
       -0.10560133 -0.017830215 -0.122656584 -0.09197977
0002d0 35 3e e0 bd fb de a2 3d 31 26 21 bd 58 c0 f6 3b
       -0.10949365 0.079526864 -0.039343063 0.0075302534
0002e0 c8 0a c2 3d a6 44 85 bd 55 c6 d6 bd 1d c2 b7 3d
       0.094747126 -0.06507234 -0.104870476 0.08972571
0002f0 bd 20 6b bd 80 f0 2f 3e 48 df 6b 3d 8a 00 53 3c
       -0.05740427 0.17181587 0.057585984 0.0128785465
000300 b2 37 fb 3b f7 a4 21 3d 6e e4 a1 bd 6e a8 21 bd
       0.0076665515 0.039463963 -0.07904898 -0.039467268
000310 02 f6 a0 bd 04 5a 61 bd 48 5e 46 bd eb 6c 1d 3d
       -0.07859422 -0.055017486 -0.048429757 0.03843395
000320 39 b6 88 bd 1a 9e d4 bd 06 af ec 3b 7c a4 14 bd
       -0.06675381 -0.10381718 0.007223013 -0.036289677
000330 24 9f 8f 3c 57 2d 19 bc b9 35 6f 3d 82 62 f8 bd
       0.017531939 -0.009349189 0.058400843 -0.12128164
000340 c9 02 d2 bc c1 5b b6 bc fa 1f ec bc 74 c7 90 3d
       -0.025636094 -0.022260549 -0.028823841 0.07069293
000350 a1 4b e4 3d a0 55 09 bd 3d 53 4a 3d 91 a2 84 3d
       0.111472376 -0.033528924 0.04939579 0.064763196
000360 b0 99 a9 3d ba 6f ee bd 03 6c b0 bd 22 6b c6 3d
       0.08281267 -0.11642404 -0.086143516 0.09688403
000370 7f 42 a7 3d f6 19 1f 3d 3d 47 59 bc de fc d3 bd
       0.0816698 0.038843118 -0.013261613 -0.10350965
000380 de 8e 9f bb c1 b2 12 bc 7d 8a 88 bd 6c 68 c1 bd
       -0.004869326 -0.008953751 -0.066670395 -0.09443745
000390 9a 9f 22 3d 05 c8 0d bc 46 46 96 3d 79 ca a6 3d
       0.03970299 -0.008653645 0.07337622 0.08144087
0003a0 bd 3f a9 bd 31 66 a6 bd 6a b9 56 3b 18 1b f0 3c
       -0.0826411 -0.0812496 0.0032764324 0.029309794
0003b0 b2 f0 80 bb c2 60 97 b9 89 96 df bd 85 b8 0a 3c
       -0.003934943 -0.00028873055 -0.10917384 0.008466844
0003c0 55 ec 0a 3e f2 81 78 3d b9 78 5a bd 61 7c f9 bc
       0.13566716 0.0606708 -0.053337786 -0.030454816
0003d0 ea 4f b2 bd b1 85 a2 bd 72 b1 05 bb 5f ad 34 bd
       -0.08706649 -0.07935656 -0.0020399955 -0.044110652
0003e0 e0 02 7c bd 65 3f 95 3d 9b 5c da 3d 9f b4 38 3d
       -0.06152618 0.07287482 0.10662194 0.04509413
0003f0 72 51 91 3c 20 ab f4 3d 13 7b 42 3d e9 cd a9 bd
       0.017739031 0.11946702 0.047480654 -0.08291227

main.0.conv.0.bias f4 [8]
000000 48 dd 33 bd 4c ab 78 bd 05 fd 06 3d 01 df 9f bd
       -0.043912202 -0.060710236 0.032956142 -0.078062065
000010 56 df 0e 3d e5 1d 9f 3d 7a c6 2a 3d 6d ad 02 3e
       0.03488096 0.07769374 0.04169319 0.12761469

main.0.norm.weight f4 [8]
000000 b0 1f 73 3f d8 f6 7d 3f 04 e8 7a 3f a2 00 85 3f
       0.94970226 0.9920478 0.9801028 1.0390818
000010 ba c6 7d 3f 78 18 7b 3f 73 03 7e 3f d8 0f 7b 3f
       0.9913136 0.9808421 0.99224013 0.9807105

main.0.norm.bias f4 [8]
000000 73 c6 e2 3c 54 54 51 bc 0d fd 28 3d 2d e0 83 3c
       0.027682519 -0.012776453 0.041256953 0.016098106
000010 43 a0 ba ba 4f 9f 70 bc 41 7c b2 3c 03 2e 95 bc
       -0.0014238436 -0.01468642 0.021787765 -0.018210417

main.1.alfa f4 [1, 8, 1, 1]
000000 29 35 77 3f 2f d8 74 3f a0 5d 81 3f bc ef 83 3f
       0.9656549 0.9564237 1.0106697 1.0307536
000010 8d c8 7f 3f 57 61 7e 3f 3c aa 80 3f 13 f5 82 3f
       0.9991539 0.9936728 1.0051951 1.0231041

main.1.beta f4 [1, 8, 1, 1]
000000 90 36 5e 3b 39 ab f0 3c 11 a1 b7 3d 72 84 0c 3c
       0.0033907034 0.02937852 0.08966268 0.008576499
000010 58 80 10 3d cd 72 76 bc 10 59 1a 3d ac 38 0b be
       0.03527865 -0.015042019 0.037682593 -0.13595837

main.1.conv.0.weight f4 [8, 8, 3, 3]
000000 fd 91 51 3d 07 c4 9a bd a0 12 8d 3d 02 92 ad bb
       0.051164616 -0.075569205 0.06888318 -0.0052969465
000010 e3 f8 8a bd c8 9c e2 3c bb b0 91 3d f9 c8 78 bd
       -0.067857526 0.02766265 0.07113787 -0.060738537
000020 fa f7 d3 3d 4b de 91 3c 04 a4 f7 bd 7e fc 0c be
       0.10350032 0.017806193 -0.120918304 -0.13768193
000030 89 95 ab 3d 63 c2 d4 3c 03 35 1b 3d bf 19 d3 bd
       0.08378131 0.025971597 0.037892353 -0.10307645
000040 39 05 1c 3d 96 f5 86 3d fd fd 76 bd d2 28 9b bd
       0.03809092 0.065898106 -0.060300816 -0.07576145
000050 89 d0 a4 3c 8f 95 d4 bb c3 d7 3c 3d 19 cf f9 bd
       0.020118969 -0.0064875553 0.046104204 -0.12197704
000060 c4 18 4f 3d 3e d9 da bc a4 05 af bc 6e 6d f2 bc
       0.050560728 -0.026714917 -0.021364994 -0.029593196
000070 bc 3f f9 3d 33 7c 8a bd ba 2d be 3d 10 4d 78 bd
       0.121703595 -0.0676197 0.092860654 -0.060620368
000080 a9 90 43 3c 6b f9 26 3c b3 b7 de bd 8d 7b 9f 3d
       0.011936345 0.010191302 -0.108748816 0.07787237
000090 6b 1c 73 bc 4d 3d f3 bc 5b 17 02 3e d2 03 8a bc
       -0.014838318 -0.029692316 0.12704222 -0.016847525
0000a0 f3 47 99 3c 74 3a f8 3c d4 14 9d 3d f4 a4 cb bd
       0.018711066 0.03030131 0.07669988 -0.09943572
0000b0 a5 28 eb bd 88 5a f5 3c 97 16 e8 3b 76 24 83 bd
       -0.11482362 0.029950395 0.007082771 -0.06403439
0000c0 7b 68 35 3d 77 ca bd bd 76 62 cd 3c d8 60 db bd
       0.044289093 -0.09267133 0.025071364 -0.10711831
0000d0 2b c7 99 bc 6d 3a 25 3d 81 a8 cb 3c 54 cc f6 3c
       -0.018771729 0.040338922 0.024860622 0.030126728
0000e0 7c 4f cd bb 6d 3e 03 3d 9c e5 00 be e2 5d 8c bd
       -0.006265579 0.032041956 -0.12587589 -0.06853844
0000f0 c6 27 5b 3d c1 cb 51 bd 62 93 0d bd c7 89 69 bc
       0.053504728 -0.051219705 -0.034564383 -0.01425404
000100 18 3f 1b bd b4 34 8c bc 33 ba 9d bb ac 0d 27 3d
       -0.037901968 -0.017114975 -0.0048134564 0.040784523
000110 49 f3 cb 3c 63 69 a3 3c a2 ba a0 3c 31 98 7a 3d
       0.02489628 0.019947713 0.019620243 0.061180297
000120 0c da 1a bc 38 e1 c1 bd b1 9f 84 3d 38 5b be bd
       -0.0094514005 -0.09466785 0.06475771 -0.09294742
000130 77 3f 80 bd e0 3f c6 3d 34 79 84 3d 4b 96 6c 3d
       -0.06262105 0.09680152 0.0646843 0.057760518
000140 90 35 f8 bd 23 31 96 bd 75 04 f7 3c 3c 79 3b 3d
       -0.12119591 -0.07333591 0.030153492 0.045769915
000150 90 56 86 3d 27 15 9b 3d df 1c e1 bd 24 9f ce 3c
       0.06559479 0.07572394 -0.10991835 0.025222369
000160 07 0c 92 3d 1d 06 b2 36 12 8a b1 39 73 e8 ba bd
       0.071312 5.305525e-06 0.0003386294 -0.091263674
000170 d7 f5 45 bd cc d3 80 3c d2 ae a1 bd d2 eb 07 3d
       -0.048330154 0.015725993 -0.078946725 0.03318388
000180 93 97 f3 bc 49 7f 41 3d 65 b9 0b 3c cc 70 65 bd
       -0.029735362 0.04724053 0.008528088 -0.056015775
000190 71 8e d2 bc 92 dd b6 bd 1e 97 92 bd 6a 8e e3 3c
       -0.025702687 -0.0892898 -0.071577296 0.02777787
0001a0 23 9d 01 be 28 b3 be 3b 0a fe 8f bd 78 2d f0 bd
       -0.12657599 0.005819697 -0.07030876 -0.117274225
0001b0 2b 01 7b 3a 41 78 ac 3c b5 03 0b be 54 df 8d bd
       0.0009575064 0.021053435 -0.13575633 -0.06927362
0001c0 fa b2 30 bd dc 6b 02 be 0b e4 7a bd 8b c4 74 3d
       -0.043139435 -0.12736458 -0.061252635 0.05975775
0001d0 e1 0c 10 be f5 ad 61 3d 3f 5c ef 3c e8 3d a5 3c
       -0.14067413 0.05509754 0.029218791 0.02017112
0001e0 2c a8 bc bd cf a7 98 3d e0 97 2b bc db 4b b3 b9
       -0.09211764 0.07453882 -0.010473222 -0.00034198057
0001f0 c0 79 b5 bd bd fb 90 3d cc a1 c0 3d f7 c0 e0 3d
       -0.088611126 0.07079265 0.0940586 0.10974305
000200 9f 5d c5 bd 8e 09 c9 3d 67 0b a9 3d 3d e2 aa bd
       -0.096369974 0.098162755 0.08254128 -0.08343933
000210 27 69 03 3d f7 10 6e 3d 91 67 2e bd 78 70 c2 bd
       0.032082703 0.058121648 -0.042579237 -0.09494108
000220 ea e4 cd bb a7 10 8e 3d 59 4b 92 bd 7e 1c 32 3d
       -0.006283392 0.0693677 -0.07143278 0.043484204
000230 f0 94 02 be d1 28 53 3d 34 a9 94 bd d4 91 0e 3d
       -0.12752128 0.051552597 -0.072588354 0.03480704
000240 ce 22 91 3d 4a 33 8f bd bb fb 99 bd 64 34 b2 bd
       0.070867166 -0.069922045 -0.07518717 -0.08701399
000250 48 79 40 bc ac 76 5c bd a1 4a 94 3d 21 69 f7 3c
       -0.011747666 -0.05382411 0.07240797 0.030201497
000260 15 0c a6 bc be f8 d7 3d 67 9d 0a bd ef 4e e8 3d
       -0.020269433 0.10545491 -0.033841517 0.113431804
000270 e0 4b 07 3e 03 d2 4c 3d c9 c2 12 bd b4 3a 4c 3b
       0.13212538 0.05000497 -0.035830293 0.003116292
000280 a9 8b ef 3c 29 63 00 3e 84 55 99 3d d5 6a 5b 3d
       0.0292414 0.12537827 0.07487014 0.05356868
000290 47 cc 2a bd 5a e3 99 3c 0a 24 0d 3e 4b 68 35 bc
       -0.04169872 0.018785167 0.13783279 -0.011072229
0002a0 d7 6c f9 3d cb 1b 6a 3e 45 a0 79 3c 8f 7f ed bd
       0.12178963 0.22862165 0.015235965 -0.115965955
0002b0 c9 ce 14 be 4f 5e a6 bd 8b 81 56 3d 6a 94 fd bd
       -0.14532007 -0.08123457 0.052369636 -0.12381823
0002c0 8d c9 08 be a8 43 13 3d 6b 1d 69 bd fa 7a 98 bd
       -0.13358136 0.035953194 -0.05691282 -0.07445331
0002d0 9b 3a 6a 3d 6b a4 7a bd 9a 0b 99 bc af 08 71 bd
       0.057184797 -0.061191957 -0.01868229 -0.058846172
0002e0 80 1e 85 3d db d3 ad bd 4f 36 c0 bd a6 34 9d bd
       0.06499958 -0.08487674 -0.093853585 -0.076760575
0002f0 c4 ea 00 bd f3 08 ee bc d2 17 ab bd ec e7 3b bd
       -0.03147389 -0.029057002 -0.08354153 -0.045875475
000300 25 e4 94 bd 3a cd 0d 3e aa 98 91 3d c6 ed 0f bd
       -0.072700776 0.13847819 0.071091965 -0.035138868
000310 21 2e aa 3c cc 7b f2 3d b6 0e 72 3d dc eb 97 bd
       0.02077395 0.11840019 0.05909606 -0.074180335
000320 24 36 9f bd d3 6f 79 bd f3 73 e4 3c c1 4d 9d bd
       -0.077739984 -0.06089766 0.02788732 -0.07680846
000330 8c 2b de 3c 24 19 61 bc 95 27 e6 3d d1 b5 4d bd
       0.027120374 -0.013738904 0.112380184 -0.05022222
000340 88 19 60 bc fc 3a fd 3c ce 74 a6 3d 40 6c dc 3d
       -0.013677962 0.030911915 0.081277475 0.107628345
000350 6f 15 34 3c f3 22 e0 bd 3e d8 cd 3d a0 5d 71 3b
       0.010991438 -0.10944166 0.100510105 0.0036829486
000360 5e 75 7d 3d d2 91 d4 bd f7 be b2 bc b8 48 f0 bd
       0.06187951 -0.103793755 -0.021819575 -0.1173262
000370 42 fa 16 be 2e e8 16 3d b5 0a be bd 5a e8 24 3c
       -0.14743903 0.036842518 -0.09279386 0.010065163
000380 a6 f2 b4 bd 67 ea d1 3c 21 50 86 bc 7e ff 54 3b
       -0.08835344 0.025624467 -0.01639563 0.0032500918
000390 23 3b 31 bd 27 43 67 bd 6d 65 ab 3d e2 f0 49 ba
       -0.043269288 -0.056460526 0.08368955 -0.0007703436
0003a0 b9 04 5d 3d 66 4c 17 bd a2 88 69 bd c3 2b 0c bd
       0.053959582 -0.036938094 -0.05701507 -0.034221422
0003b0 41 a8 4a 3d 73 a0 bf bd b1 6b 3c bd fe 80 d1 bd
       0.049476866 -0.09356775 -0.04600114 -0.102296814
0003c0 33 9b 68 bc 18 b6 00 bd 5e e6 07 bc 6e d2 e0 3d
       -0.014197159 -0.031423658 -0.00829467 0.10977636
0003d0 d9 8d 19 3e 73 51 26 3e 93 b2 0a bb 53 b8 cc 3d
       0.14995517 0.16242008 -0.0021163567 0.099960946
0003e0 1e d2 0e bd 91 1a 50 3d c8 1f 0c 3d ab b8 db bd
       -0.034868352 0.050806586 0.034209996 -0.10728582
0003f0 6b a3 99 bd 97 1e 7c bd 58 d6 a1 bd b8 d3 81 3d
       -0.07501873 -0.06155261 -0.07902211 0.0633921

main.1.conv.0.bias f4 [8]
000000 d9 b0 c7 bd 01 f3 cc bc c2 b4 9c 3d bd ca af 3c
       -0.09750528 -0.025018217 0.07651664 0.021458978
000010 4d c7 82 bd 3b 45 93 bc 3d 65 26 bd 1e cd 3d 3d
       -0.0638567 -0.017977348 -0.040623892 0.046338193

main.1.norm.weight f4 [8]
000000 d0 2a 82 3f ed 43 7d 3f 45 7f 82 3f 3d 37 8a 3f
       1.0169315 0.9893177 1.019509 1.0798107
000010 40 f3 80 3f 3d e7 81 3f 6b 0a 72 3f 6d ee 7b 3f
       1.0074234 1.0148693 0.94547147 0.98410684

main.1.norm.bias f4 [8]
000000 84 9a 08 bd ef 91 64 3d 10 8c 83 bc 45 82 84 bc
       -0.033350483 0.055803236 -0.016057998 -0.016175399
000010 69 7b 06 bd dc 96 c4 bb a2 76 54 3a 88 6a b7 3c
       -0.032832537 -0.005999429 0.0008104836 0.022389665

main.2.alfa f4 [1, 8, 1, 1]
000000 09 a1 7b 3f 53 d6 76 3f 4c 2e 81 3f e4 5f 81 3f
       0.98292595 0.9642078 1.0092254 1.0107388
000010 14 73 7f 3f e1 8c 83 3f 78 7d 84 3f a0 95 7e 3f
       0.9978497 1.0277368 1.035079 0.9944706

main.2.beta f4 [1, 8, 1, 1]
000000 0b 96 a7 ba b9 d4 9f bd eb a0 20 bc f8 ae d9 bc
       -0.0012785805 -0.078042455 -0.009803991 -0.02657269
000010 6e ad c1 3d 95 9c 80 3d 8c 0d 98 3d d3 5d ab 3c
       0.09456907 0.06279866 0.07424459 0.020918762

main.2.conv.0.weight f4 [8, 8, 3, 3]
000000 31 c7 11 3e be f1 f8 3d 1b dc ac 3c 7d b4 ab 3c
       0.14236142 0.12155484 0.021101048 0.020960087
000010 23 3c 75 3c ba 66 8f 3d d7 8b 81 bd a0 0b 3b 3c
       0.014967951 0.070020154 -0.063255005 0.011416346
000020 ed dc 6e 3d ae 56 9d 3c 07 50 08 be a2 00 87 3d
       0.05831616 0.019206371 -0.13311778 0.065919176
000030 59 22 81 3d af ed 94 3d 73 18 ee bd a2 1b cc bd
       0.063053794 0.07271897 -0.11625757 -0.09966208
000040 35 23 81 3d ee 01 a5 bc f9 90 16 3a af 34 80 bd
       0.06305543 -0.020142522 0.00057436485 -0.062600486
000050 69 88 92 bd 68 ba 4d bd 94 50 41 bd e8 03 3f 3c
       -0.071549244 -0.0502266 -0.047195986 0.011658646
000060 21 1b d5 bd cc 79 2d bd e6 ed 70 3d 3f 82 c4 bd
       -0.10405565 -0.042352483 0.058820628 -0.09595155
000070 c7 65 c7 bd d1 72 1b bc 1f 8e 31 bc 81 c6 cf bc
       -0.09736209 -0.009487824 -0.010837107 -0.025363209
000080 bd 2a 0c be 73 7b 23 bd d3 31 95 3b 16 f3 f6 bc
       -0.13688178 -0.039912652 0.0045530587 -0.03014521
000090 27 ce 38 3d b8 13 b6 3c 94 74 9d bd 01 42 2f bd
       0.045118477 0.0222262 -0.07688251 -0.042787556
0000a0 c4 7a f2 bc 3d 06 4f 3d a9 17 1a bd 33 18 a8 3d
       -0.029599555 0.05054306 -0.03762022 0.08207741
0000b0 4e 96 64 3d 00 b3 9d 3c 19 c2 ad 3d 28 2c e3 3c
       0.055807404 0.019250393 0.08484287 0.027731016
0000c0 34 5e 6e bb 33 f6 99 3d 5f 98 77 3d 4e 0f c3 3d
       -0.0036372067 0.07517662 0.060448047 0.095244035
0000d0 f2 1f 13 3c 98 fa cd 3d a1 7f 97 bd 00 ed 5b 3d
       0.008979784 0.100575626 -0.0739739 0.053692818
0000e0 ab 84 9e 3c 4e bf cd 3d 84 9a bf 3c d1 be 5c bb
       0.01935037 0.10046254 0.023389108 -0.0033683071
0000f0 65 7e 67 3d de de 68 bd 84 7f 0d 3d 3f 13 25 3d
       0.056517024 -0.056853168 0.034545437 0.040301558
000100 f4 78 fd 3c f0 59 9f 3d f8 76 dd 3b 17 76 34 bc
       0.030941464 0.07780826 0.006758567 -0.011014483
000110 9c fd c6 3d 82 35 5a 3d 70 76 d2 3d ed d2 fc bc
       0.09716341 0.053273685 0.102764964 -0.030862296
000120 4c 75 74 bd 9c b1 04 be 57 9c ce bd 99 28 4a 3c
       -0.059682176 -0.12958378 -0.10088413 0.012338781
000130 4f 97 d2 bd 70 6c 3a 3a 87 92 66 3d 91 89 d1 3d
       -0.10282766 0.00071114954 0.056292083 0.10231317
000140 45 e4 86 3d a3 59 af bb 74 51 9b bd 35 42 9d 3d
       0.06586508 -0.0053512617 -0.07583895 0.076786436
000150 e9 04 0e be 6b ff 33 bd b7 6c 51 bd 2f e5 98 bc
       -0.1386906 -0.043944757 -0.05112907 -0.01866397
000160 ec 41 bd bd e6 41 d7 bd a3 76 a1 3d 06 ff a7 3d
       -0.09241089 -0.10510616 0.07883956 0.08202939
000170 02 90 9e 3c 8c af d9 bc 22 6f 88 3d 24 e2 56 bd
       0.019355778 -0.026572965 0.06661822 -0.05246176
000180 b2 25 10 bd 50 13 cd bc 96 63 77 3c 3e 33 ab bd
       -0.0351922 -0.025033623 0.015099427 -0.08359383
000190 b4 e0 88 3d 72 1d 59 3d 00 e1 e1 bd 81 81 b4 bd
       0.06683484 0.053006597 -0.110292435 -0.088137634
0001a0 9f a6 ad bd 7c a0 46 bc 89 70 fa 3b 87 86 b7 bd
       -0.08479046 -0.012123223 0.00764281 -0.08961206
0001b0 cc d1 e9 bd fd 2c d1 3a d7 e4 38 3d 62 0a bd bd
       -0.11416969 0.0015958842 0.045140114 -0.09230496
0001c0 71 c9 c0 bd 33 9e a2 bd 62 eb 04 3b 23 53 52 3b
       -0.09413422 -0.0794033 0.00202819 0.003209301
0001d0 50 15 d3 bc 4e 3c 00 be de 3a 43 bd 35 64 61 3d
       -0.025766999 -0.12523004 -0.047663562 0.055027205
0001e0 ff 1e 1c bd 2c 3c 86 3d d4 63 a5 bd 7b d8 7a bd
       -0.038115498 0.065544456 -0.08075681 -0.061241608
0001f0 b2 3e d6 3d 63 64 9f bc 16 22 a8 bc 4e 64 c5 3c
       0.10461177 -0.019457048 -0.020524066 0.02409568
000200 37 e8 11 bd 31 8a fb 3d d6 81 97 3a 16 2e 0e bd
       -0.035621848 0.12282217 0.001155908 -0.03471192
000210 cc 3a cc bc a1 cc 96 bc 74 96 5b bd 5b 40 9f bd
       -0.02493038 -0.018408122 -0.05361028 -0.07775947
000220 4e 8a 90 bd d6 6c f0 3c c3 a9 4c 3d fa d3 ac 3c
       -0.070576295 0.029348772 0.049966585 0.021097172
000230 b3 44 cf bb f0 34 f8 3c 7b 7e d1 3d 95 9c c5 3d
       -0.0063253283 0.03029868 0.10229202 0.09649006
000240 b0 3e d5 3b 0e e3 a2 bd 88 ba fe bd 5d 9c 1d 3d
       0.006507717 -0.079534635 -0.12437922 0.038479198
000250 f5 62 32 3d 51 4f 36 3c 40 72 a9 bd 15 73 92 bd
       0.043551404 0.011127309 -0.082737446 -0.071508564
000260 c9 7a f4 bd ae 5a 9b bd 08 5a 36 bd d1 a3 99 3d
       -0.11937482 -0.07585655 -0.044519454 0.075019486
000270 3f 17 84 bc 17 4f d5 bb 78 4c 0f bd e4 49 c5 bc
       -0.016124366 -0.0065096724 -0.034985036 -0.024083085
000280 b3 f7 a2 bd 7e 33 88 bd 1c 99 60 bd 8c 7b 1e 3d
       -0.07957401 -0.06650446 -0.054833516 0.038692042
000290 b0 37 47 bc 8d ec 26 3d c7 aa 81 3d d0 1c ff bb
       -0.012159273 0.040752936 0.06331401 -0.007785417
0002a0 5b 8a 0c bd 9c e6 cc 3d d6 ca d6 3c 27 bd 18 bc
       -0.034311634 0.10004923 0.026219767 -0.009322441
0002b0 67 2b 7e bd b2 64 ef 3c 2e 74 c7 3c 90 27 98 bb
       -0.06205311 0.02922282 0.024347391 -0.004643388
0002c0 0e c0 74 bd 8d 5d 80 bb 4d e6 cf 3d 3f 79 61 3b
       -0.05975347 -0.003917402 0.10151348 0.0034404544
0002d0 c4 d5 37 bd b7 25 1c bd b4 c7 9a bd e6 e1 c2 bd
       -0.044881597 -0.038121905 -0.075576216 -0.09515743
0002e0 68 3e 06 be 6b 45 b2 3d c9 95 87 3d 07 e7 b9 3b
       -0.13109744 0.08704647 0.06620366 0.0056732926
0002f0 cf b3 0e 3d 85 10 27 bd 77 21 0b be 7f 6f 04 3d
       0.034839448 -0.04078724 -0.13586985 0.032332893
000300 e5 0b 63 bd e3 9f 25 be c4 ec 82 3c 46 a1 66 bd
       -0.055431265 -0.16174273 0.01598204 -0.056306146
000310 5c 78 fd bd 94 2c 66 bc 84 09 82 bd 56 95 ba 3b
       -0.12376472 -0.014048714 -0.06349471 0.0056940718
000320 52 c6 b2 3d 00 c7 1d 3d d6 1a 80 bd 32 2f a3 3c
       0.08729233 0.03851986 -0.062551185 0.019919965
000330 06 a0 ae 3c a6 fe 39 bc 64 c6 7a bd 63 d4 ce bc
       0.02131654 -0.011352217 -0.061224356 -0.025247758
000340 13 ed 53 bd 48 37 19 bd 11 e4 61 3d 8f b3 c4 bd
       -0.051739763 -0.037406236 0.05514914 -0.096045606
000350 80 1f 8f bd ef 4c db bd 9e 05 ae bd 87 3c 0d be
       -0.0698843 -0.10708033 -0.08497165 -0.1379262
000360 83 18 21 3e b1 08 e6 bc 21 13 f2 3d 78 d1 f2 3d
       0.15732007 -0.028080316 0.11820055 0.11856359
000370 98 65 97 bd 38 0f 97 3d 91 4e 12 bd 00 14 4a 3d
       -0.07392424 0.073759496 -0.035719458 0.04933548
000380 da 39 07 3e fa 00 08 bd 89 e3 a6 3d 90 4d 76 bd
       0.13205662 -0.033204056 0.08148868 -0.060132563
000390 8b 45 e9 3d 78 2f 0c 3d e0 02 98 3c f6 49 d2 bd
       0.113902174 0.034224957 0.018556058 -0.10268013
0003a0 b0 9d de 3d 0d 91 ac 3c 45 e4 09 bd 21 7e 8c bd
       0.1086992 0.02106526 -0.03366496 -0.06859995
0003b0 50 80 59 bd fc 4c cd bb 7a da cc 3c 56 49 09 be
       -0.053100884 -0.006265281 0.025006521 -0.13406882
0003c0 f1 8a f1 bd 3d 82 f1 bd ae b2 33 bd 4c 15 30 3c
       -0.11794079 -0.11792419 -0.043871574 0.010747265
0003d0 fd 96 c3 3d 1d c9 87 3c bf 4d 0b 3d ad 2c 5b 3b
       0.09550283 0.01657539 0.03400969 0.0033443377
0003e0 7c ed 4d bc 6d dc c7 bd 92 bf 92 bd 69 52 02 3d
       -0.012568828 -0.0975884 -0.071654454 0.031816874
0003f0 16 9c c6 bc 22 0e a1 3d 08 0b ac bd bd 4d 5d 3d
       -0.02424435 0.07864024 -0.084005415 0.054029215

main.2.conv.0.bias f4 [8]
000000 36 31 d5 3c 36 30 a9 bd 10 7a 85 3d 27 fe de bd
       0.026024442 -0.08261149 0.06517422 -0.108883195
000010 b9 f0 a7 3d 99 7a f4 bc 75 f9 6c bd bc e4 2b bc
       0.08200211 -0.029843615 -0.05785509 -0.010491546

main.2.norm.weight f4 [8]
000000 c3 6d 83 3f c8 55 7c 3f 22 bd 7e 3f 6e 4e 86 3f
       1.0267872 0.9856839 0.99507344 1.0492685
000010 4e 23 81 3f 28 a0 84 3f db 48 7e 3f 12 86 85 3f
       1.0088899 1.0361376 0.9932992 1.043154

main.2.norm.bias f4 [8]
000000 9d 27 44 bd be a4 f7 bb 32 dd b5 3d ac 01 39 3d
       -0.04788934 -0.0075574806 0.0888008 0.04516761
000010 c0 df 30 bd b8 a5 76 bd 1c 91 8e bb d2 fc 6e bd
       -0.043182135 -0.060216635 -0.0043507945 -0.058346577

main.3.alfa f4 [1, 8, 1, 1]
000000 e8 55 7c 3f b0 24 80 3f e5 2c 7f 3f a5 df 74 3f
       0.9856858 1.0011196 0.9967788 0.95653754
000010 04 b2 79 3f 49 c3 73 3f aa e9 80 3f 8d 28 7a 3f
       0.97537255 0.95219857 1.0071309 0.97718126

main.3.beta f4 [1, 8, 1, 1]
000000 e2 b2 8a bc 32 be a4 3c 17 97 a8 bc 01 e7 74 bc
       -0.016931001 0.020110223 -0.020579858 -0.014947654
000010 64 ea 10 3d b6 94 1d bc 1c f0 ad bc 82 f9 ff bd
       0.035379782 -0.009617975 -0.021232657 -0.12498762

main.3.conv.0.weight f4 [8, 8, 3, 3]
000000 e7 19 ba 3d 58 8b d9 bc f7 ad e2 bd 17 11 cc bd
       0.09086972 -0.026555702 -0.110683374 -0.09964197
000010 01 f1 f4 bd ab f1 99 bd dc 88 d1 3c b2 f8 a9 3d
       -0.1196003 -0.07516798 0.025577955 0.08299388
000020 5b 78 d7 bd 6b 7e 90 3d 58 d2 01 3d 08 83 57 3d
       -0.10521003 0.07055362 0.03169474 0.052615196
000030 ae 48 a2 bc a1 63 b4 3d 46 80 02 3d 44 2d ed bc
       -0.019810047 0.08808065 0.031860612 -0.028952248
000040 7b af b1 3d 44 a1 01 3e 59 da e5 bd 2d d1 c3 3d
       0.08676048 0.12659174 -0.11223287 0.095613815
000050 b3 70 fc bc e2 19 75 bd ff d5 b9 39 6c f9 e6 bd
       -0.030815458 -0.059839137 0.0003544539 -0.11278042
000060 c0 95 2e 3b 4a 85 59 bd 84 08 f7 3c 0d d6 fc bc
       0.002663955 -0.05310563 0.030155428 -0.030863786
000070 d4 5e 01 3d 6c 35 a4 bc 04 b3 05 bd fb cb a6 3d
       0.031584576 -0.020045005 -0.032641426 0.08144375
000080 fa fe df bd c5 ce c7 bc 0e 26 c8 bd 31 85 b0 bd
       -0.10937305 -0.024390588 -0.09772883 -0.08619154
000090 19 10 8a bd 4d cc 35 3d 55 cc e3 bd 55 11 7a bd
       -0.06741352 0.04438429 -0.111229576 -0.061051685
0000a0 ab f3 0f be 71 bc 93 3d ae 2e d6 3d 46 3e d1 bd
       -0.14057796 0.07213677 0.10458122 -0.10216956
0000b0 26 eb 6a bc ad 3d c0 bc e4 80 f8 3c 30 6d 66 bd
       -0.01433829 -0.02346691 0.030334897 -0.056256473
0000c0 17 b2 00 3d ea 7c e1 3c c9 d8 35 bd b4 33 4b 3d
       0.03141984 0.027525384 -0.044396196 0.049609855
0000d0 12 1f df 3c 6e b6 87 3c 17 99 e3 3c 39 42 c8 3c
       0.027236495 0.016566481 0.02778296 0.02444564
0000e0 11 7e e0 39 63 64 a1 bd d6 41 c1 3c 16 b4 e4 bc
       0.00042818536 -0.07880475 0.023590963 -0.027917903
0000f0 c2 41 12 3d 70 72 80 bd 45 35 ec bd ca a9 83 3b
       0.035707243 -0.06271827 -0.11533598 0.004018043
000100 ae 2f d5 3d 03 44 c8 3d 9f e4 8a 3d 8d 6b 59 bd
       0.10409485 0.09778597 0.06781887 -0.053081084
000110 17 9e 56 bd 88 be ee bc d5 0d 7f bd d9 a0 d0 3d
       -0.05239686 -0.029143587 -0.06226905 0.10186929
000120 3f d9 f1 bd 62 3c a7 bd b8 2d 6a bd d6 a2 39 bd
       -0.118090145 -0.08165814 -0.057172507 -0.045321308
000130 82 57 c8 3d e6 83 28 bc a9 06 90 3d cb 81 c4 bd
       0.09782316 -0.010285353 0.0703252 -0.095950685
000140 63 e4 7e 3d f8 87 db bc f7 e0 43 3d f3 76 a9 3d
       0.062229525 -0.026798233 0.047821965 0.08274641
000150 cd d3 50 bd b0 b0 70 3d c4 44 88 3d e0 07 a5 bd
       -0.05098324 0.058762252 0.06653741 -0.08058143
000160 07 97 3a 3c 36 d9 14 bd 64 90 9c 3d 19 89 a5 3d
       0.011388547 -0.03633996 0.07644728 0.0808279
000170 63 ba 60 bc ca 3d b3 bd b9 5a cf 3d 63 25 c1 3c
       -0.013716313 -0.0875202 0.10124726 0.023577398
000180 f3 83 73 bb aa 4e 9e bb e7 40 ad 3d 8b ae 3c bc
       -0.0037157505 -0.004831155 0.08459645 -0.011516224
000190 88 62 9d 3d 04 4e 19 bc a7 88 c6 bc 07 88 da 3d
       0.07684809 -0.009356979 -0.024235083 0.106704764
0001a0 55 f2 13 3c cb ef 7b 3d b1 27 3d bc 69 84 a4 3a
       0.009029944 0.06150798 -0.011545108 0.0012551668
0001b0 b1 79 83 bd 27 cf 78 3d 34 c9 21 bd db 9d 9b bd
       -0.06419695 0.06074443 -0.039498523 -0.07598468
0001c0 d8 c4 66 bd ef 36 b0 3d 29 91 9b ba de 17 dd bd
       -0.05634007 0.08604228 -0.0011868823 -0.10795568
0001d0 a1 86 e6 3d 54 ba 05 3c db 93 16 bd 5d 27 c6 bc
       0.11256147 0.0081621 -0.0367621 -0.024188692
0001e0 c8 40 b7 bd 39 0a 62 ba d2 ac 89 bd c1 5f 65 3d
       -0.08947903 -0.0008622739 -0.06722416 0.05599952
0001f0 57 c4 61 3d 5c b9 8c bb dd 3c d0 3d 1a f2 ad bc
       0.055118885 -0.0042945575 0.10167859 -0.021233607
000200 ff a4 f7 3c 44 00 00 3e cb 0a 03 3e 2f c3 21 3e
       0.030230043 0.12500101 0.12797086 0.15797113
000210 26 8f 08 3d 10 2f 44 bd b1 3a f2 bb d2 5e df 39
       0.033339642 -0.047896445 -0.0073922505 0.0004260452
000220 c0 17 04 bc 33 5e ee 3d b2 1d 88 bd 42 8e 15 3e
       -0.008062303 0.11639061 -0.06646289 0.14605048
000230 db d9 e7 bb d4 42 79 bd fb 5f 0c 3e 92 7b 44 3d
       -0.007075531 -0.060854748 0.13708489 0.04796941
000240 62 1e 73 bc ed de 57 3d 83 86 21 bd 7e 91 be 3d
       -0.014838787 0.052702833 -0.03943492 0.09305094
000250 d0 48 2b bd 5e 8f 08 be 60 ce 98 3d 26 47 3b 3d
       -0.041817486 -0.1333594 0.07461238 0.04572215
000260 b9 fe 95 bb f2 9b c9 3d bb db 15 be c7 4a 39 bd
       -0.0045774844 0.09844197 -0.14634602 -0.04523733
000270 2a d0 de bd a9 d1 42 be 96 46 1d be a3 e6 2e 3d
       -0.10879548 -0.19025292 -0.15358958 0.04270042
000280 d6 f1 8c bd 03 4d 85 bd fb 89 3e bd 48 77 ba bd
       -0.06882064 -0.065088294 -0.046518307 -0.09104782
000290 f5 5e 54 3d cd b6 02 3d 17 88 61 be 1e 21 b3 bd
       0.05184837 0.031912614 -0.2202457 -0.08746551
0002a0 fc 58 82 ba 76 3f 35 bd 21 4f da 3c 55 a8 69 3d
       -0.0009944732 -0.044249974 0.02664906 0.0570453
0002b0 42 5d 83 3d d6 4c df bd 77 65 a8 bc 81 fe bf bd
       0.06414272 -0.10903327 -0.020556195 -0.09374715
0002c0 2e 72 50 bb 79 7d fc bc 70 21 ac bd 1c 4e ea bd
       -0.0031806338 -0.030821549 -0.08404815 -0.114406794
0002d0 c1 62 58 bb cf b3 ab 3d be 14 b0 bb 53 6c ec bc
       -0.0033017846 0.08383905 -0.0053735664 -0.028860247
0002e0 9d cb 50 3e a5 01 ff 3b 8d 49 89 3d 86 c0 ec 3d
       0.20390172 0.0077821785 0.06703482 0.115601584
0002f0 39 e7 ec 37 18 0d c0 3c 70 5c 5a bd 30 91 29 bd
       2.8241064e-05 0.023443744 -0.05331081 -0.041398227
000300 47 33 0e be 4b 81 30 be 2e 27 4a bd 59 d1 9e bb
       -0.13886748 -0.17236821 -0.04935377 -0.0048467335
000310 d9 00 5a bc 9d 22 9c 3c 70 eb e3 bd ad 40 1e 3a
       -0.013305866 0.019059474 -0.111288905 0.0006036859
000320 cc 2c 77 3c b6 1e 99 3d 7e 53 25 bd 1e 0c ed bc
       0.015086364 0.07476561 -0.040362827 -0.028936442
000330 83 4b 82 bc df db 2d be 0e e2 66 3d ab 30 13 bc
       -0.015905147 -0.16978405 0.056367926 -0.008983771
000340 18 db 6a bd b5 c0 35 bd 29 7b d5 bd 15 1e 99 bd
       -0.05733785 -0.044373233 -0.104238816 -0.07476441
000350 40 a8 fc bd 36 f2 3d bd 3d 8b 9c bd 01 85 47 bd
       -0.12336779 -0.04637357 -0.07643745 -0.048710827
000360 96 91 d8 bd a8 6b 68 bd 57 9f 9b 3b 83 4b 64 3b
       -0.10574643 -0.056743294 0.0047492194 0.0034835048
000370 19 fe 2a bc 44 d2 3a 3c 38 fa 41 bd 4e 44 ea 3c
       -0.010436558 0.01140267 -0.047357768 0.028597023
000380 82 24 2e bd 07 ec d7 bd 0a 96 21 be 3f a5 4a 3c
       -0.042515285 -0.105430655 -0.15779892 0.012368499
000390 02 78 ee 3d 8e 33 29 3d 90 df e0 bd 4e ec 9d 3d
       0.116439834 0.041308932 -0.10980141 0.07711087
0003a0 01 0a c7 3d d6 c7 ce 3c 3c 31 d4 bc ce fd e4 bd
       0.09718705 0.025241774 -0.025902383 -0.11181222
0003b0 da 79 67 3c a6 60 12 bb e6 83 83 3d dd 9b a9 bd
       0.014128173 -0.002233544 0.06421642 -0.08281682
0003c0 71 d4 b4 3d f7 8c a3 3a c5 38 ad bd 66 7a de bb
       0.088295825 0.0012477924 -0.084580936 -0.0067894934
0003d0 2a d3 97 3d fd 75 72 3d 97 0c d5 bd b6 65 97 bc
       0.07413323 0.059194554 -0.10402792 -0.018481117
0003e0 83 69 b3 bb ba 4f 9c bc 33 8f 8d bd f1 6c 35 3d
       -0.0054752245 -0.019080985 -0.06912079 0.044293348
0003f0 28 00 0f 3e 79 af ee 3d a8 41 99 3c f4 88 bf 3d
       0.13964903 0.116545625 0.018708065 0.093522936

main.3.conv.0.bias f4 [8]
000000 e7 3c 1f 3b 1e 12 00 3c fb 2c ba 3d 95 1d a4 bd
       0.0024297775 0.0078168195 0.090906106 -0.08013455
000010 aa 6f 4f 3c 90 34 a7 bb f6 5a a7 bc 6d 95 b2 3d
       0.0126609 -0.0051027015 -0.020429116 0.08719907

main.3.norm.weight f4 [8]
000000 9f 85 7e 3f ed db 72 3f 20 7c 7b 3f 6e 9f 7d 3f
       0.9942264 0.9486683 0.98236275 0.99071395
000010 4c bd 7d 3f 8f 9c 7e 3f b5 95 78 3f e0 fe 64 3f
       0.9911697 0.9945764 0.97103435 0.8945141

main.3.norm.bias f4 [8]
000000 26 cb 1f 3c f1 8d c6 bc 7f 3a 0c bc 27 1c 91 3c
       0.009753024 -0.024237605 -0.008558868 0.01771362
000010 53 70 36 bb be 26 85 3b c4 5e fc bc 97 56 0b 3c
       -0.0027837947 0.0040634563 -0.030806907 0.008504531

post.weight f4 [1, 8, 1, 1]
000000 95 fa 24 bd 6f 5b 59 3d 87 cf 37 3e 0b 53 09 3e
       -0.040278036 0.053065713 0.17950259 0.13410585
000010 cb ab 6c 3e 97 d4 81 be e9 1b e7 bc 35 5c 8f be
       0.23112409 -0.25357506 -0.02821155 -0.28000036
